4
loading data from ../data/7class_simple_normalized/
Using real-time data augmentation
Loading network/training configuration...
Model summary...
____________________________________________________________________________________________________
Layer (type)                     Output Shape          Param #     Connected to                     
====================================================================================================
convolution2d_1 (Convolution2D)  (None, 64, 48, 48)    640         convolution2d_input_1[0][0]      
____________________________________________________________________________________________________
convolution2d_2 (Convolution2D)  (None, 64, 48, 48)    36928       convolution2d_1[0][0]            
____________________________________________________________________________________________________
maxpooling2d_1 (MaxPooling2D)    (None, 64, 24, 24)    0           convolution2d_2[0][0]            
____________________________________________________________________________________________________
batchnormalization_1 (BatchNorma (None, 64, 24, 24)    96          maxpooling2d_1[0][0]             
____________________________________________________________________________________________________
dropout_1 (Dropout)              (None, 64, 24, 24)    0           batchnormalization_1[0][0]       
____________________________________________________________________________________________________
convolution2d_3 (Convolution2D)  (None, 128, 24, 24)   73856       dropout_1[0][0]                  
____________________________________________________________________________________________________
convolution2d_4 (Convolution2D)  (None, 128, 24, 24)   147584      convolution2d_3[0][0]            
____________________________________________________________________________________________________
maxpooling2d_2 (MaxPooling2D)    (None, 128, 12, 12)   0           convolution2d_4[0][0]            
____________________________________________________________________________________________________
batchnormalization_2 (BatchNorma (None, 128, 12, 12)   48          maxpooling2d_2[0][0]             
____________________________________________________________________________________________________
dropout_2 (Dropout)              (None, 128, 12, 12)   0           batchnormalization_2[0][0]       
____________________________________________________________________________________________________
convolution2d_5 (Convolution2D)  (None, 256, 12, 12)   295168      dropout_2[0][0]                  
____________________________________________________________________________________________________
convolution2d_6 (Convolution2D)  (None, 256, 12, 12)   590080      convolution2d_5[0][0]            
____________________________________________________________________________________________________
maxpooling2d_3 (MaxPooling2D)    (None, 256, 6, 6)     0           convolution2d_6[0][0]            
____________________________________________________________________________________________________
batchnormalization_3 (BatchNorma (None, 256, 6, 6)     24          maxpooling2d_3[0][0]             
____________________________________________________________________________________________________
dropout_3 (Dropout)              (None, 256, 6, 6)     0           batchnormalization_3[0][0]       
____________________________________________________________________________________________________
convolution2d_7 (Convolution2D)  (None, 512, 6, 6)     1180160     dropout_3[0][0]                  
____________________________________________________________________________________________________
convolution2d_8 (Convolution2D)  (None, 512, 6, 6)     2359808     convolution2d_7[0][0]            
____________________________________________________________________________________________________
maxpooling2d_4 (MaxPooling2D)    (None, 512, 3, 3)     0           convolution2d_8[0][0]            
____________________________________________________________________________________________________
batchnormalization_4 (BatchNorma (None, 512, 3, 3)     12          maxpooling2d_4[0][0]             
____________________________________________________________________________________________________
dropout_4 (Dropout)              (None, 512, 3, 3)     0           batchnormalization_4[0][0]       
____________________________________________________________________________________________________
flatten_1 (Flatten)              (None, 4608)          0           dropout_4[0][0]                  
____________________________________________________________________________________________________
dense_1 (Dense)                  (None, 1024)          4719616     flatten_1[0][0]                  
____________________________________________________________________________________________________
activation_1 (Activation)        (None, 1024)          0           dense_1[0][0]                    
____________________________________________________________________________________________________
dropout_5 (Dropout)              (None, 1024)          0           activation_1[0][0]               
____________________________________________________________________________________________________
dense_2 (Dense)                  (None, 7)             7175        dropout_5[0][0]                  
____________________________________________________________________________________________________
activation_2 (Activation)        (None, 7)             0           dense_2[0][0]                    
====================================================================================================
Total params: 9,411,195
Trainable params: 9,411,105
Non-trainable params: 90
____________________________________________________________________________________________________
None
X_train shape:  (28709, 1, 48, 48)
y_train shape:  (28709, 7)
  img size:  48 48
…
