4
loading data from ../data/7class_simple_normalized/
Using real-time data augmentation
Loading network/training configuration...
Model summary...
____________________________________________________________________________________________________
Layer (type)                     Output Shape          Param #     Connected to                     
====================================================================================================
convolution2d_1 (Convolution2D)  (None, 32, 48, 48)    320         convolution2d_input_1[0][0]      
____________________________________________________________________________________________________
convolution2d_2 (Convolution2D)  (None, 32, 48, 48)    9248        convolution2d_1[0][0]            
____________________________________________________________________________________________________
convolution2d_3 (Convolution2D)  (None, 32, 48, 48)    9248        convolution2d_2[0][0]            
____________________________________________________________________________________________________
maxpooling2d_1 (MaxPooling2D)    (None, 32, 24, 24)    0           convolution2d_3[0][0]            
____________________________________________________________________________________________________
convolution2d_4 (Convolution2D)  (None, 64, 24, 24)    18496       maxpooling2d_1[0][0]             
____________________________________________________________________________________________________
convolution2d_5 (Convolution2D)  (None, 64, 24, 24)    36928       convolution2d_4[0][0]            
____________________________________________________________________________________________________
convolution2d_6 (Convolution2D)  (None, 64, 24, 24)    36928       convolution2d_5[0][0]            
____________________________________________________________________________________________________
maxpooling2d_2 (MaxPooling2D)    (None, 64, 12, 12)    0           convolution2d_6[0][0]            
____________________________________________________________________________________________________
convolution2d_7 (Convolution2D)  (None, 128, 12, 12)   73856       maxpooling2d_2[0][0]             
____________________________________________________________________________________________________
convolution2d_8 (Convolution2D)  (None, 128, 12, 12)   147584      convolution2d_7[0][0]            
____________________________________________________________________________________________________
convolution2d_9 (Convolution2D)  (None, 128, 12, 12)   147584      convolution2d_8[0][0]            
____________________________________________________________________________________________________
maxpooling2d_3 (MaxPooling2D)    (None, 128, 6, 6)     0           convolution2d_9[0][0]            
____________________________________________________________________________________________________
flatten_1 (Flatten)              (None, 4608)          0           maxpooling2d_3[0][0]             
____________________________________________________________________________________________________
dense_1 (Dense)                  (None, 64)            294976      flatten_1[0][0]                  
____________________________________________________________________________________________________
dense_2 (Dense)                  (None, 64)            4160        dense_1[0][0]                    
____________________________________________________________________________________________________
dropout_1 (Dropout)              (None, 64)            0           dense_2[0][0]                    
____________________________________________________________________________________________________
batchnormalization_1 (BatchNorma (None, 64)            256         dropout_1[0][0]                  
____________________________________________________________________________________________________
dense_3 (Dense)                  (None, 7)             455         batchnormalization_1[0][0]       
====================================================================================================
Total params: 780,039
Trainable params: 779,911
Non-trainable params: 128
____________________________________________________________________________________________________
None
X_train shape:  (28709, 1, 48, 48)
y_train shape:  (28709, 7)
  img size:  48 48
…
