4
loading data from ../data/7class_simple_normalized/
Using real-time data augmentation
Loading network/training configuration...
Model summary...
____________________________________________________________________________________________________
Layer (type)                     Output Shape          Param #     Connected to                     
====================================================================================================
convolution2d_1 (Convolution2D)  (None, 32, 48, 48)    832         convolution2d_input_1[0][0]      
____________________________________________________________________________________________________
maxpooling2d_1 (MaxPooling2D)    (None, 32, 24, 24)    0           convolution2d_1[0][0]            
____________________________________________________________________________________________________
batchnormalization_1 (BatchNorma (None, 32, 24, 24)    96          maxpooling2d_1[0][0]             
____________________________________________________________________________________________________
convolution2d_2 (Convolution2D)  (None, 32, 24, 24)    16416       batchnormalization_1[0][0]       
____________________________________________________________________________________________________
maxpooling2d_2 (MaxPooling2D)    (None, 32, 12, 12)    0           convolution2d_2[0][0]            
____________________________________________________________________________________________________
batchnormalization_2 (BatchNorma (None, 32, 12, 12)    48          maxpooling2d_2[0][0]             
____________________________________________________________________________________________________
convolution2d_3 (Convolution2D)  (None, 64, 12, 12)    51264       batchnormalization_2[0][0]       
____________________________________________________________________________________________________
maxpooling2d_3 (MaxPooling2D)    (None, 64, 6, 6)      0           convolution2d_3[0][0]            
____________________________________________________________________________________________________
batchnormalization_3 (BatchNorma (None, 64, 6, 6)      24          maxpooling2d_3[0][0]             
____________________________________________________________________________________________________
flatten_1 (Flatten)              (None, 2304)          0           batchnormalization_3[0][0]       
____________________________________________________________________________________________________
dense_1 (Dense)                  (None, 1024)          2360320     flatten_1[0][0]                  
____________________________________________________________________________________________________
elu_1 (ELU)                      (None, 1024)          0           dense_1[0][0]                    
____________________________________________________________________________________________________
dropout_1 (Dropout)              (None, 1024)          0           elu_1[0][0]                      
____________________________________________________________________________________________________
batchnormalization_4 (BatchNorma (None, 1024)          4096        dropout_1[0][0]                  
____________________________________________________________________________________________________
dense_2 (Dense)                  (None, 7)             7175        batchnormalization_4[0][0]       
====================================================================================================
Total params: 2,440,271
Trainable params: 2,438,139
Non-trainable params: 2,132
____________________________________________________________________________________________________
None
X_train shape:  (28709, 1, 48, 48)
y_train shape:  (28709, 7)
  img size:  48 48
…
